…
I0715 02:33:30.924840    15 net.cpp:294] The NetState phase (0) differed from the phase (1) specified by a rule in layer accuracy
I0715 02:33:30.925117    15 net.cpp:51] Initializing net from parameters: 
name: "CaffeNet"
state {
  phase: TRAIN
  level: 0
  stage: ""
}
layer {
  name: "data"
  type: "Data"
  top: "data"
  top: "label"
  include {
    phase: TRAIN
  }
  transform_param {
    mirror: true
    crop_size: 227
    mean_file: "/workspace/caffe_training/input/mean.binaryproto"
  }
  data_param {
    source: "/workspace/caffe_training/input/train_lmdb"
    batch_size: 32
    backend: LMDB
  }
}
layer {
  name: "conv1"
  type: "Convolution"
  bottom: "data"
  top: "conv1"
  param {
    lr_mult: 0
    decay_mult: 1
  }
  param {
    lr_mult: 0
    decay_mult: 0
  }
  convolution_param {
    num_output: 96
    kernel_size: 11
    stride: 4
    weight_filler {
      type: "gaussian"
      std: 0.01
    }
    bias_filler {
      type: "constant"
      value: 0
    }
  }
}
layer {
  name: "relu1"
  type: "ReLU"
  bottom: "conv1"
  top: "conv1"
}
layer {
  name: "pool1"
  type: "Pooling"
  bottom: "conv1"
  top: "pool1"
  pooling_param {
    pool: MAX
    kernel_size: 3
    stride: 2
  }
}
layer {
  name: "norm1"
  type: "LRN"
  bottom: "pool1"
  top: "norm1"
  lrn_param {
    local_size: 5
    alpha: 0.0001
    beta: 0.75
  }
}
layer {
  name: "conv2"
  type: "Convolution"
  bottom: "norm1"
  top: "conv2"
  param {
    lr_mult: 0
    decay_mult: 1
  }
  param {
    lr_mult: 0
    decay_mult: 0
  }
  convolution_param {
    num_output: 256
    pad: 2
    kernel_size: 5
    group: 2
    weight_filler {
      type: "gaussian"
      std: 0.01
    }
    bias_filler {
      type: "constant"
      value: 1
    }
  }
}
layer {
  name: "relu2"
  type: "ReLU"
  bottom: "conv2"
  top: "conv2"
}
layer {
  name: "pool2"
  type: "Pooling"
  bottom: "conv2"
  top: "pool2"
  pooling_param {
    pool: MAX
    kernel_size: 3
    stride: 2
  }
}
layer {
  name: "norm2"
  type: "LRN"
  bottom: "pool2"
  top: "norm2"
  lrn_param {
    local_size: 5
    alpha: 0.0001
    beta: 0.75
  }
}
layer {
  name: "conv3"
  type: "Convolution"
  bottom: "norm2"
  top: "conv3"
  param {
    lr_mult: 0
    decay_mult: 1
  }
  param {
    lr_mult: 0
    decay_mult: 0
  }
  convolution_param {
    num_output: 384
    pad: 1
    kernel_size: 3
    weight_filler {
      type: "gaussian"
      std: 0.01
    }
    bias_filler {
      type: "constant"
      value: 0
    }
  }
}
layer {
  name: "relu3"
  type: "ReLU"
  bottom: "conv3"
  top: "conv3"
}
layer {
  name: "conv4"
  type: "Convolution"
  bottom: "conv3"
  top: "conv4"
  param {
    lr_mult: 0
    decay_mult: 1
  }
  param {
    lr_mult: 0
    decay_mult: 0
  }
  convolution_param {
    num_output: 384
    pad: 1
    kernel_size: 3
    group: 2
    weight_filler {
      type: "gaussian"
      std: 0.01
    }
    bias_filler {
      type: "constant"
      value: 1
    }
  }
}
layer {
  name: "relu4"
  type: "ReLU"
  bottom: "conv4"
  top: "conv4"
}
layer {
  name: "conv5"
  type: "Convolution"
  bottom: "conv4"
  top: "conv5"
  param {
    lr_mult: 0
    decay_mult: 1
  }
  param {
    lr_mult: 0
    decay_mult: 0
  }
  convolution_param {
    num_output: 256
    pad: 1
    kernel_size: 3
    group: 2
    weight_filler {
      type: "gaussian"
      std: 0.01
    }
    bias_filler {
      type: "constant"
      value: 1
    }
  }
}
layer {
  name: "relu5"
  type: "ReLU"
  bottom: "conv5"
  top: "conv5"
}
layer {
  name: "pool5"
  type: "Pooling"
  bottom: "conv5"
  top: "pool5"
  pooling_param {
    pool: MAX
    kernel_size: 3
    stride: 2
  }
}
layer {
  name: "fc6"
  type: "InnerProduct"
  bottom: "pool5"
  top: "fc6"
  param {
    lr_mult: 0
    decay_mult: 1
  }
  param {
    lr_mult: 0
    decay_mult: 0
  }
  inner_product_param {
    num_output: 4096
    weight_filler {
      type: "gaussian"
      std: 0.005
    }
    bias_filler {
      type: "constant"
      value: 1
    }
  }
}
layer {
  name: "relu6"
  type: "ReLU"
  bottom: "fc6"
  top: "fc6"
}
layer {
  name: "drop6"
  type: "Dropout"
  bottom: "fc6"
  top: "fc6"
  dropout_param {
    dropout_ratio: 0.5
  }
}
layer {
  name: "fc7"
  type: "InnerProduct"
  bottom: "fc6"
  top: "fc7"
  param {
    lr_mult: 0
    decay_mult: 1
  }
  param {
    lr_mult: 0
    decay_mult: 0
  }
  inner_product_param {
    num_output: 4096
    weight_filler {
      type: "gaussian"
      std: 0.005
    }
    bias_filler {
      type: "constant"
      value: 1
    }
  }
}
layer {
  name: "relu7"
  type: "ReLU"
  bottom: "fc7"
  top: "fc7"
}
layer {
  name: "drop7"
  type: "Dropout"
  bottom: "fc7"
  top: "fc7"
  dropout_param {
    dropout_ratio: 0.5
  }
}
layer {
  name: "fc8-ones-tens"
  type: "InnerProduct"
  bottom: "fc7"
  top: "fc8-ones-tens"
  param {
    lr_mult: 1
    decay_mult: 1
  }
  param {
    lr_mult: 2
    decay_mult: 0
  }
  inner_product_param {
    num_output: 2
    weight_filler {
      type: "gaussian"
      std: 0.01
    }
    bias_filler {
      type: "constant"
      value: 0
    }
  }
}
layer {
  name: "loss"
  type: "SoftmaxWithLoss"
  bottom: "fc8-ones-tens"
  bottom: "label"
  top: "loss"
}
I0715 02:33:30.925379    15 layer_factory.hpp:77] Creating layer data
I0715 02:33:30.926280    15 db_lmdb.cpp:35] Opened lmdb /workspace/caffe_training/input/train_lmdb
I0715 02:33:30.926340    15 net.cpp:84] Creating Layer data
I0715 02:33:30.926360    15 net.cpp:380] data -> data
I0715 02:33:30.926389    15 net.cpp:380] data -> label
I0715 02:33:30.926409    15 data_transformer.cpp:25] Loading mean file from: /workspace/caffe_training/input/mean.binaryproto
I0715 02:33:30.929538    15 data_layer.cpp:45] output data size: 32,3,227,227
I0715 02:33:30.929996    15 net.cpp:122] Setting up data
I0715 02:33:30.930073    15 net.cpp:129] Top shape: 32 3 227 227 (4946784)
I0715 02:33:30.930096    15 net.cpp:129] Top shape: 32 (32)
I0715 02:33:30.930107    15 net.cpp:137] Memory required for data: 19787264
I0715 02:33:30.930143    15 layer_factory.hpp:77] Creating layer conv1
I0715 02:33:30.930280    15 net.cpp:84] Creating Layer conv1
I0715 02:33:30.930310    15 net.cpp:406] conv1 <- data
I0715 02:33:30.930335    15 net.cpp:380] conv1 -> conv1
I0715 02:33:30.931125    15 net.cpp:122] Setting up conv1
I0715 02:33:30.931248    15 net.cpp:129] Top shape: 32 96 55 55 (9292800)
I0715 02:33:30.931269    15 net.cpp:137] Memory required for data: 56958464
I0715 02:33:30.931346    15 layer_factory.hpp:77] Creating layer relu1
I0715 02:33:30.931386    15 net.cpp:84] Creating Layer relu1
I0715 02:33:30.931411    15 net.cpp:406] relu1 <- conv1
I0715 02:33:30.931429    15 net.cpp:367] relu1 -> conv1 (in-place)
I0715 02:33:30.931457    15 net.cpp:122] Setting up relu1
I0715 02:33:30.931480    15 net.cpp:129] Top shape: 32 96 55 55 (9292800)
I0715 02:33:30.931499    15 net.cpp:137] Memory required for data: 94129664
I0715 02:33:30.931509    15 layer_factory.hpp:77] Creating layer pool1
I0715 02:33:30.931520    15 net.cpp:84] Creating Layer pool1
I0715 02:33:30.931537    15 net.cpp:406] pool1 <- conv1
I0715 02:33:30.931550    15 net.cpp:380] pool1 -> pool1
I0715 02:33:30.931638    15 net.cpp:122] Setting up pool1
I0715 02:33:30.931668    15 net.cpp:129] Top shape: 32 96 27 27 (2239488)
I0715 02:33:30.931676    15 net.cpp:137] Memory required for data: 103087616
I0715 02:33:30.931685    15 layer_factory.hpp:77] Creating layer norm1
I0715 02:33:30.931733    15 net.cpp:84] Creating Layer norm1
I0715 02:33:30.931743    15 net.cpp:406] norm1 <- pool1
I0715 02:33:30.931753    15 net.cpp:380] norm1 -> norm1
I0715 02:33:30.931780    15 net.cpp:122] Setting up norm1
I0715 02:33:30.931799    15 net.cpp:129] Top shape: 32 96 27 27 (2239488)
I0715 02:33:30.931807    15 net.cpp:137] Memory required for data: 112045568
I0715 02:33:30.931824    15 layer_factory.hpp:77] Creating layer conv2
I0715 02:33:30.931840    15 net.cpp:84] Creating Layer conv2
I0715 02:33:30.931859    15 net.cpp:406] conv2 <- norm1
I0715 02:33:30.931869    15 net.cpp:380] conv2 -> conv2
I0715 02:33:30.935657    15 net.cpp:122] Setting up conv2
I0715 02:33:30.935709    15 net.cpp:129] Top shape: 32 256 27 27 (5971968)
I0715 02:33:30.935719    15 net.cpp:137] Memory required for data: 135933440
I0715 02:33:30.935731    15 layer_factory.hpp:77] Creating layer relu2
I0715 02:33:30.935745    15 net.cpp:84] Creating Layer relu2
I0715 02:33:30.935755    15 net.cpp:406] relu2 <- conv2
I0715 02:33:30.935765    15 net.cpp:367] relu2 -> conv2 (in-place)
I0715 02:33:30.935776    15 net.cpp:122] Setting up relu2
I0715 02:33:30.935786    15 net.cpp:129] Top shape: 32 256 27 27 (5971968)
I0715 02:33:30.935793    15 net.cpp:137] Memory required for data: 159821312
I0715 02:33:30.935801    15 layer_factory.hpp:77] Creating layer pool2
I0715 02:33:30.935811    15 net.cpp:84] Creating Layer pool2
I0715 02:33:30.935818    15 net.cpp:406] pool2 <- conv2
I0715 02:33:30.935832    15 net.cpp:380] pool2 -> pool2
I0715 02:33:30.935844    15 net.cpp:122] Setting up pool2
I0715 02:33:30.935850    15 net.cpp:129] Top shape: 32 256 13 13 (1384448)
I0715 02:33:30.935859    15 net.cpp:137] Memory required for data: 165359104
I0715 02:33:30.935865    15 layer_factory.hpp:77] Creating layer norm2
I0715 02:33:30.935873    15 net.cpp:84] Creating Layer norm2
I0715 02:33:30.935879    15 net.cpp:406] norm2 <- pool2
I0715 02:33:30.935887    15 net.cpp:380] norm2 -> norm2
I0715 02:33:30.935899    15 net.cpp:122] Setting up norm2
I0715 02:33:30.935907    15 net.cpp:129] Top shape: 32 256 13 13 (1384448)
I0715 02:33:30.935915    15 net.cpp:137] Memory required for data: 170896896
I0715 02:33:30.935926    15 layer_factory.hpp:77] Creating layer conv3
I0715 02:33:30.935940    15 net.cpp:84] Creating Layer conv3
I0715 02:33:30.935946    15 net.cpp:406] conv3 <- norm2
I0715 02:33:30.935953    15 net.cpp:380] conv3 -> conv3
I0715 02:33:30.946415    15 net.cpp:122] Setting up conv3
I0715 02:33:30.946461    15 net.cpp:129] Top shape: 32 384 13 13 (2076672)
I0715 02:33:30.946470    15 net.cpp:137] Memory required for data: 179203584
I0715 02:33:30.946487    15 layer_factory.hpp:77] Creating layer relu3
I0715 02:33:30.946501    15 net.cpp:84] Creating Layer relu3
I0715 02:33:30.946511    15 net.cpp:406] relu3 <- conv3
I0715 02:33:30.946521    15 net.cpp:367] relu3 -> conv3 (in-place)
I0715 02:33:30.946534    15 net.cpp:122] Setting up relu3
I0715 02:33:30.946544    15 net.cpp:129] Top shape: 32 384 13 13 (2076672)
I0715 02:33:30.946553    15 net.cpp:137] Memory required for data: 187510272
I0715 02:33:30.946561    15 layer_factory.hpp:77] Creating layer conv4
I0715 02:33:30.946575    15 net.cpp:84] Creating Layer conv4
I0715 02:33:30.946583    15 net.cpp:406] conv4 <- conv3
I0715 02:33:30.946674    15 net.cpp:380] conv4 -> conv4
I0715 02:33:30.954790    15 net.cpp:122] Setting up conv4
I0715 02:33:30.955005    15 net.cpp:129] Top shape: 32 384 13 13 (2076672)
I0715 02:33:30.955371    15 net.cpp:137] Memory required for data: 195816960
I0715 02:33:30.955857    15 layer_factory.hpp:77] Creating layer relu4
I0715 02:33:30.955966    15 net.cpp:84] Creating Layer relu4
I0715 02:33:30.956060    15 net.cpp:406] relu4 <- conv4
I0715 02:33:30.956476    15 net.cpp:367] relu4 -> conv4 (in-place)
I0715 02:33:30.956660    15 net.cpp:122] Setting up relu4
I0715 02:33:30.956943    15 net.cpp:129] Top shape: 32 384 13 13 (2076672)
I0715 02:33:30.957612    15 net.cpp:137] Memory required for data: 204123648
I0715 02:33:30.957793    15 layer_factory.hpp:77] Creating layer conv5
I0715 02:33:30.958335    15 net.cpp:84] Creating Layer conv5
I0715 02:33:30.958477    15 net.cpp:406] conv5 <- conv4
I0715 02:33:30.958880    15 net.cpp:380] conv5 -> conv5
I0715 02:33:30.966743    15 net.cpp:122] Setting up conv5
I0715 02:33:30.966958    15 net.cpp:129] Top shape: 32 256 13 13 (1384448)
I0715 02:33:30.967020    15 net.cpp:137] Memory required for data: 209661440
I0715 02:33:30.967093    15 layer_factory.hpp:77] Creating layer relu5
I0715 02:33:30.967492    15 net.cpp:84] Creating Layer relu5
I0715 02:33:30.967550    15 net.cpp:406] relu5 <- conv5
I0715 02:33:30.967604    15 net.cpp:367] relu5 -> conv5 (in-place)
I0715 02:33:30.967675    15 net.cpp:122] Setting up relu5
I0715 02:33:30.967730    15 net.cpp:129] Top shape: 32 256 13 13 (1384448)
I0715 02:33:30.967778    15 net.cpp:137] Memory required for data: 215199232
I0715 02:33:30.967828    15 layer_factory.hpp:77] Creating layer pool5
I0715 02:33:30.967881    15 net.cpp:84] Creating Layer pool5
I0715 02:33:30.967931    15 net.cpp:406] pool5 <- conv5
I0715 02:33:30.967984    15 net.cpp:380] pool5 -> pool5
I0715 02:33:30.968042    15 net.cpp:122] Setting up pool5
I0715 02:33:30.968093    15 net.cpp:129] Top shape: 32 256 6 6 (294912)
I0715 02:33:30.968156    15 net.cpp:137] Memory required for data: 216378880
I0715 02:33:30.968206    15 layer_factory.hpp:77] Creating layer fc6
I0715 02:33:30.968266    15 net.cpp:84] Creating Layer fc6
I0715 02:33:30.968313    15 net.cpp:406] fc6 <- pool5
I0715 02:33:30.968366    15 net.cpp:380] fc6 -> fc6
I0715 02:33:31.346034    15 net.cpp:122] Setting up fc6
I0715 02:33:31.346312    15 net.cpp:129] Top shape: 32 4096 (131072)
I0715 02:33:31.346583    15 net.cpp:137] Memory required for data: 216903168
I0715 02:33:31.346730    15 layer_factory.hpp:77] Creating layer relu6
I0715 02:33:31.347440    15 net.cpp:84] Creating Layer relu6
I0715 02:33:31.347676    15 net.cpp:406] relu6 <- fc6
I0715 02:33:31.348435    15 net.cpp:367] relu6 -> fc6 (in-place)
I0715 02:33:31.348912    15 net.cpp:122] Setting up relu6
I0715 02:33:31.349069    15 net.cpp:129] Top shape: 32 4096 (131072)
I0715 02:33:31.349195    15 net.cpp:137] Memory required for data: 217427456
I0715 02:33:31.349736    15 layer_factory.hpp:77] Creating layer drop6
I0715 02:33:31.349920    15 net.cpp:84] Creating Layer drop6
I0715 02:33:31.350242    15 net.cpp:406] drop6 <- fc6
I0715 02:33:31.350600    15 net.cpp:367] drop6 -> fc6 (in-place)
I0715 02:33:31.350873    15 net.cpp:122] Setting up drop6
I0715 02:33:31.351197    15 net.cpp:129] Top shape: 32 4096 (131072)
I0715 02:33:31.351461    15 net.cpp:137] Memory required for data: 217951744
I0715 02:33:31.351735    15 layer_factory.hpp:77] Creating layer fc7
I0715 02:33:31.352057    15 net.cpp:84] Creating Layer fc7
I0715 02:33:31.352408    15 net.cpp:406] fc7 <- fc6
I0715 02:33:31.352989    15 net.cpp:380] fc7 -> fc7
I0715 02:33:31.520717    15 net.cpp:122] Setting up fc7
I0715 02:33:31.521401    15 net.cpp:129] Top shape: 32 4096 (131072)
I0715 02:33:31.521430    15 net.cpp:137] Memory required for data: 218476032
I0715 02:33:31.521479    15 layer_factory.hpp:77] Creating layer relu7
I0715 02:33:31.521500    15 net.cpp:84] Creating Layer relu7
I0715 02:33:31.521514    15 net.cpp:406] relu7 <- fc7
I0715 02:33:31.521531    15 net.cpp:367] relu7 -> fc7 (in-place)
I0715 02:33:31.521566    15 net.cpp:122] Setting up relu7
I0715 02:33:31.521577    15 net.cpp:129] Top shape: 32 4096 (131072)
I0715 02:33:31.521585    15 net.cpp:137] Memory required for data: 219000320
I0715 02:33:31.521594    15 layer_factory.hpp:77] Creating layer drop7
I0715 02:33:31.521605    15 net.cpp:84] Creating Layer drop7
I0715 02:33:31.521618    15 net.cpp:406] drop7 <- fc7
I0715 02:33:31.521630    15 net.cpp:367] drop7 -> fc7 (in-place)
I0715 02:33:31.521641    15 net.cpp:122] Setting up drop7
I0715 02:33:31.521653    15 net.cpp:129] Top shape: 32 4096 (131072)
I0715 02:33:31.521662    15 net.cpp:137] Memory required for data: 219524608
I0715 02:33:31.521670    15 layer_factory.hpp:77] Creating layer fc8-ones-tens
I0715 02:33:31.521682    15 net.cpp:84] Creating Layer fc8-ones-tens
I0715 02:33:31.521725    15 net.cpp:406] fc8-ones-tens <- fc7
I0715 02:33:31.521739    15 net.cpp:380] fc8-ones-tens -> fc8-ones-tens
I0715 02:33:31.521845    15 net.cpp:122] Setting up fc8-ones-tens
I0715 02:33:31.521855    15 net.cpp:129] Top shape: 32 2 (64)
I0715 02:33:31.521862    15 net.cpp:137] Memory required for data: 219524864
I0715 02:33:31.521869    15 layer_factory.hpp:77] Creating layer loss
I0715 02:33:31.521883    15 net.cpp:84] Creating Layer loss
I0715 02:33:31.521893    15 net.cpp:406] loss <- fc8-ones-tens
I0715 02:33:31.521901    15 net.cpp:406] loss <- label
I0715 02:33:31.521912    15 net.cpp:380] loss -> loss
I0715 02:33:31.521930    15 layer_factory.hpp:77] Creating layer loss
…
I0715 02:33:31.522549    15 net.cpp:294] The NetState phase (1) differed from the phase (0) specified by a rule in layer data
I0715 02:33:31.522708    15 net.cpp:51] Initializing net from parameters: 
name: "CaffeNet"
state {
  phase: TEST
}
layer {
  name: "data"
  type: "Data"
  top: "data"
  top: "label"
  include {
    phase: TEST
  }
  transform_param {
    mirror: false
    crop_size: 227
    mean_file: "/workspace/caffe_training/input/mean.binaryproto"
  }
  data_param {
    source: "/workspace/caffe_training/input/validation_lmdb"
    batch_size: 32
    backend: LMDB
  }
}
layer {
  name: "conv1"
  type: "Convolution"
  bottom: "data"
  top: "conv1"
  param {
    lr_mult: 0
    decay_mult: 1
  }
  param {
    lr_mult: 0
    decay_mult: 0
  }
  convolution_param {
    num_output: 96
    kernel_size: 11
    stride: 4
    weight_filler {
      type: "gaussian"
      std: 0.01
    }
    bias_filler {
      type: "constant"
      value: 0
    }
  }
}
layer {
  name: "relu1"
  type: "ReLU"
  bottom: "conv1"
  top: "conv1"
}
layer {
  name: "pool1"
  type: "Pooling"
  bottom: "conv1"
  top: "pool1"
  pooling_param {
    pool: MAX
    kernel_size: 3
    stride: 2
  }
}
layer {
  name: "norm1"
  type: "LRN"
  bottom: "pool1"
  top: "norm1"
  lrn_param {
    local_size: 5
    alpha: 0.0001
    beta: 0.75
  }
}
layer {
  name: "conv2"
  type: "Convolution"
  bottom: "norm1"
  top: "conv2"
  param {
    lr_mult: 0
    decay_mult: 1
  }
  param {
    lr_mult: 0
    decay_mult: 0
  }
  convolution_param {
    num_output: 256
    pad: 2
    kernel_size: 5
    group: 2
    weight_filler {
      type: "gaussian"
      std: 0.01
    }
    bias_filler {
      type: "constant"
      value: 1
    }
  }
}
layer {
  name: "relu2"
  type: "ReLU"
  bottom: "conv2"
  top: "conv2"
}
layer {
  name: "pool2"
  type: "Pooling"
  bottom: "conv2"
  top: "pool2"
  pooling_param {
    pool: MAX
    kernel_size: 3
    stride: 2
  }
}
layer {
  name: "norm2"
  type: "LRN"
  bottom: "pool2"
  top: "norm2"
  lrn_param {
    local_size: 5
    alpha: 0.0001
    beta: 0.75
  }
}
layer {
  name: "conv3"
  type: "Convolution"
  bottom: "norm2"
  top: "conv3"
  param {
    lr_mult: 0
    decay_mult: 1
  }
  param {
    lr_mult: 0
    decay_mult: 0
  }
  convolution_param {
    num_output: 384
    pad: 1
    kernel_size: 3
    weight_filler {
      type: "gaussian"
      std: 0.01
    }
    bias_filler {
      type: "constant"
      value: 0
    }
  }
}
layer {
  name: "relu3"
  type: "ReLU"
  bottom: "conv3"
  top: "conv3"
}
layer {
  name: "conv4"
  type: "Convolution"
  bottom: "conv3"
  top: "conv4"
  param {
    lr_mult: 0
    decay_mult: 1
  }
  param {
    lr_mult: 0
    decay_mult: 0
  }
  convolution_param {
    num_output: 384
    pad: 1
    kernel_size: 3
    group: 2
    weight_filler {
      type: "gaussian"
      std: 0.01
    }
    bias_filler {
      type: "constant"
      value: 1
    }
  }
}
layer {
  name: "relu4"
  type: "ReLU"
  bottom: "conv4"
  top: "conv4"
}
layer {
  name: "conv5"
  type: "Convolution"
  bottom: "conv4"
  top: "conv5"
  param {
    lr_mult: 0
    decay_mult: 1
  }
  param {
    lr_mult: 0
    decay_mult: 0
  }
  convolution_param {
    num_output: 256
    pad: 1
    kernel_size: 3
    group: 2
    weight_filler {
      type: "gaussian"
      std: 0.01
    }
    bias_filler {
      type: "constant"
      value: 1
    }
  }
}
layer {
  name: "relu5"
  type: "ReLU"
  bottom: "conv5"
  top: "conv5"
}
layer {
  name: "pool5"
  type: "Pooling"
  bottom: "conv5"
  top: "pool5"
  pooling_param {
    pool: MAX
    kernel_size: 3
    stride: 2
  }
}
layer {
  name: "fc6"
  type: "InnerProduct"
  bottom: "pool5"
  top: "fc6"
  param {
    lr_mult: 0
    decay_mult: 1
  }
  param {
    lr_mult: 0
    decay_mult: 0
  }
  inner_product_param {
    num_output: 4096
    weight_filler {
      type: "gaussian"
      std: 0.005
    }
    bias_filler {
      type: "constant"
      value: 1
    }
  }
}
layer {
  name: "relu6"
  type: "ReLU"
  bottom: "fc6"
  top: "fc6"
}
layer {
  name: "drop6"
  type: "Dropout"
  bottom: "fc6"
  top: "fc6"
  dropout_param {
    dropout_ratio: 0.5
  }
}
layer {
  name: "fc7"
  type: "InnerProduct"
  bottom: "fc6"
  top: "fc7"
  param {
    lr_mult: 0
    decay_mult: 1
  }
  param {
    lr_mult: 0
    decay_mult: 0
  }
  inner_product_param {
    num_output: 4096
    weight_filler {
      type: "gaussian"
      std: 0.005
    }
    bias_filler {
      type: "constant"
      value: 1
    }
  }
}
layer {
  name: "relu7"
  type: "ReLU"
  bottom: "fc7"
  top: "fc7"
}
layer {
  name: "drop7"
  type: "Dropout"
  bottom: "fc7"
  top: "fc7"
  dropout_param {
    dropout_ratio: 0.5
  }
}
layer {
  name: "fc8-ones-tens"
  type: "InnerProduct"
  bottom: "fc7"
  top: "fc8-ones-tens"
  param {
    lr_mult: 1
    decay_mult: 1
  }
  param {
    lr_mult: 2
    decay_mult: 0
  }
  inner_product_param {
    num_output: 2
    weight_filler {
      type: "gaussian"
      std: 0.01
    }
    bias_filler {
      type: "constant"
      value: 0
    }
  }
}
layer {
  name: "accuracy"
  type: "Accuracy"
  bottom: "fc8-ones-tens"
  bottom: "label"
  top: "accuracy"
  include {
    phase: TEST
  }
}
layer {
  name: "loss"
  type: "SoftmaxWithLoss"
  bottom: "fc8-ones-tens"
  bottom: "label"
  top: "loss"
}
I0715 02:33:31.522820    15 layer_factory.hpp:77] Creating layer data
I0715 02:33:31.522897    15 db_lmdb.cpp:35] Opened lmdb /workspace/caffe_training/input/validation_lmdb
I0715 02:33:31.522920    15 net.cpp:84] Creating Layer data
I0715 02:33:31.522933    15 net.cpp:380] data -> data
I0715 02:33:31.522948    15 net.cpp:380] data -> label
I0715 02:33:31.522961    15 data_transformer.cpp:25] Loading mean file from: /workspace/caffe_training/input/mean.binaryproto
I0715 02:33:31.524185    15 data_layer.cpp:45] output data size: 32,3,227,227
I0715 02:33:31.524283    15 net.cpp:122] Setting up data
I0715 02:33:31.524299    15 net.cpp:129] Top shape: 32 3 227 227 (4946784)
I0715 02:33:31.524308    15 net.cpp:129] Top shape: 32 (32)
I0715 02:33:31.524317    15 net.cpp:137] Memory required for data: 19787264
I0715 02:33:31.524325    15 layer_factory.hpp:77] Creating layer label_data_1_split
I0715 02:33:31.524340    15 net.cpp:84] Creating Layer label_data_1_split
I0715 02:33:31.524348    15 net.cpp:406] label_data_1_split <- label
I0715 02:33:31.524361    15 net.cpp:380] label_data_1_split -> label_data_1_split_0
I0715 02:33:31.524376    15 net.cpp:380] label_data_1_split -> label_data_1_split_1
I0715 02:33:31.524389    15 net.cpp:122] Setting up label_data_1_split
I0715 02:33:31.524399    15 net.cpp:129] Top shape: 32 (32)
I0715 02:33:31.524410    15 net.cpp:129] Top shape: 32 (32)
I0715 02:33:31.524417    15 net.cpp:137] Memory required for data: 19787520
I0715 02:33:31.524422    15 layer_factory.hpp:77] Creating layer conv1
I0715 02:33:31.524436    15 net.cpp:84] Creating Layer conv1
I0715 02:33:31.524447    15 net.cpp:406] conv1 <- data
I0715 02:33:31.524458    15 net.cpp:380] conv1 -> conv1
I0715 02:33:31.524806    15 net.cpp:122] Setting up conv1
I0715 02:33:31.524818    15 net.cpp:129] Top shape: 32 96 55 55 (9292800)
I0715 02:33:31.524829    15 net.cpp:137] Memory required for data: 56958720
I0715 02:33:31.524842    15 layer_factory.hpp:77] Creating layer relu1
I0715 02:33:31.524850    15 net.cpp:84] Creating Layer relu1
I0715 02:33:31.524855    15 net.cpp:406] relu1 <- conv1
I0715 02:33:31.524865    15 net.cpp:367] relu1 -> conv1 (in-place)
I0715 02:33:31.524874    15 net.cpp:122] Setting up relu1
I0715 02:33:31.524883    15 net.cpp:129] Top shape: 32 96 55 55 (9292800)
I0715 02:33:31.524890    15 net.cpp:137] Memory required for data: 94129920
I0715 02:33:31.524899    15 layer_factory.hpp:77] Creating layer pool1
I0715 02:33:31.524909    15 net.cpp:84] Creating Layer pool1
I0715 02:33:31.524915    15 net.cpp:406] pool1 <- conv1
I0715 02:33:31.524924    15 net.cpp:380] pool1 -> pool1
I0715 02:33:31.524935    15 net.cpp:122] Setting up pool1
I0715 02:33:31.524945    15 net.cpp:129] Top shape: 32 96 27 27 (2239488)
I0715 02:33:31.524955    15 net.cpp:137] Memory required for data: 103087872
I0715 02:33:31.524962    15 layer_factory.hpp:77] Creating layer norm1
I0715 02:33:31.524969    15 net.cpp:84] Creating Layer norm1
I0715 02:33:31.524976    15 net.cpp:406] norm1 <- pool1
I0715 02:33:31.524983    15 net.cpp:380] norm1 -> norm1
I0715 02:33:31.524993    15 net.cpp:122] Setting up norm1
I0715 02:33:31.525002    15 net.cpp:129] Top shape: 32 96 27 27 (2239488)
I0715 02:33:31.525009    15 net.cpp:137] Memory required for data: 112045824
I0715 02:33:31.525017    15 layer_factory.hpp:77] Creating layer conv2
I0715 02:33:31.525027    15 net.cpp:84] Creating Layer conv2
I0715 02:33:31.525035    15 net.cpp:406] conv2 <- norm1
I0715 02:33:31.525044    15 net.cpp:380] conv2 -> conv2
I0715 02:33:31.527966    15 net.cpp:122] Setting up conv2
I0715 02:33:31.527995    15 net.cpp:129] Top shape: 32 256 27 27 (5971968)
I0715 02:33:31.528031    15 net.cpp:137] Memory required for data: 135933696
I0715 02:33:31.528050    15 layer_factory.hpp:77] Creating layer relu2
I0715 02:33:31.528064    15 net.cpp:84] Creating Layer relu2
I0715 02:33:31.528072    15 net.cpp:406] relu2 <- conv2
I0715 02:33:31.528084    15 net.cpp:367] relu2 -> conv2 (in-place)
I0715 02:33:31.528095    15 net.cpp:122] Setting up relu2
I0715 02:33:31.528105    15 net.cpp:129] Top shape: 32 256 27 27 (5971968)
I0715 02:33:31.528112    15 net.cpp:137] Memory required for data: 159821568
I0715 02:33:31.528122    15 layer_factory.hpp:77] Creating layer pool2
I0715 02:33:31.528137    15 net.cpp:84] Creating Layer pool2
I0715 02:33:31.528144    15 net.cpp:406] pool2 <- conv2
I0715 02:33:31.528152    15 net.cpp:380] pool2 -> pool2
I0715 02:33:31.528165    15 net.cpp:122] Setting up pool2
I0715 02:33:31.528177    15 net.cpp:129] Top shape: 32 256 13 13 (1384448)
I0715 02:33:31.528185    15 net.cpp:137] Memory required for data: 165359360
I0715 02:33:31.528193    15 layer_factory.hpp:77] Creating layer norm2
I0715 02:33:31.528203    15 net.cpp:84] Creating Layer norm2
I0715 02:33:31.528210    15 net.cpp:406] norm2 <- pool2
I0715 02:33:31.528220    15 net.cpp:380] norm2 -> norm2
I0715 02:33:31.528233    15 net.cpp:122] Setting up norm2
I0715 02:33:31.528241    15 net.cpp:129] Top shape: 32 256 13 13 (1384448)
I0715 02:33:31.528254    15 net.cpp:137] Memory required for data: 170897152
I0715 02:33:31.528259    15 layer_factory.hpp:77] Creating layer conv3
I0715 02:33:31.528275    15 net.cpp:84] Creating Layer conv3
I0715 02:33:31.528280    15 net.cpp:406] conv3 <- norm2
I0715 02:33:31.528288    15 net.cpp:380] conv3 -> conv3
I0715 02:33:31.546221    15 net.cpp:122] Setting up conv3
I0715 02:33:31.546264    15 net.cpp:129] Top shape: 32 384 13 13 (2076672)
I0715 02:33:31.546274    15 net.cpp:137] Memory required for data: 179203840
I0715 02:33:31.546290    15 layer_factory.hpp:77] Creating layer relu3
I0715 02:33:31.546306    15 net.cpp:84] Creating Layer relu3
I0715 02:33:31.546315    15 net.cpp:406] relu3 <- conv3
I0715 02:33:31.546325    15 net.cpp:367] relu3 -> conv3 (in-place)
I0715 02:33:31.546339    15 net.cpp:122] Setting up relu3
I0715 02:33:31.546347    15 net.cpp:129] Top shape: 32 384 13 13 (2076672)
I0715 02:33:31.546355    15 net.cpp:137] Memory required for data: 187510528
I0715 02:33:31.546362    15 layer_factory.hpp:77] Creating layer conv4
I0715 02:33:31.546375    15 net.cpp:84] Creating Layer conv4
I0715 02:33:31.546381    15 net.cpp:406] conv4 <- conv3
I0715 02:33:31.546391    15 net.cpp:380] conv4 -> conv4
I0715 02:33:31.554081    15 net.cpp:122] Setting up conv4
I0715 02:33:31.554132    15 net.cpp:129] Top shape: 32 384 13 13 (2076672)
I0715 02:33:31.554142    15 net.cpp:137] Memory required for data: 195817216
I0715 02:33:31.554155    15 layer_factory.hpp:77] Creating layer relu4
I0715 02:33:31.554169    15 net.cpp:84] Creating Layer relu4
I0715 02:33:31.554179    15 net.cpp:406] relu4 <- conv4
I0715 02:33:31.554201    15 net.cpp:367] relu4 -> conv4 (in-place)
I0715 02:33:31.554217    15 net.cpp:122] Setting up relu4
I0715 02:33:31.554224    15 net.cpp:129] Top shape: 32 384 13 13 (2076672)
I0715 02:33:31.554231    15 net.cpp:137] Memory required for data: 204123904
I0715 02:33:31.554241    15 layer_factory.hpp:77] Creating layer conv5
I0715 02:33:31.554255    15 net.cpp:84] Creating Layer conv5
I0715 02:33:31.554263    15 net.cpp:406] conv5 <- conv4
I0715 02:33:31.554273    15 net.cpp:380] conv5 -> conv5
I0715 02:33:31.562237    15 net.cpp:122] Setting up conv5
I0715 02:33:31.562296    15 net.cpp:129] Top shape: 32 256 13 13 (1384448)
I0715 02:33:31.562315    15 net.cpp:137] Memory required for data: 209661696
I0715 02:33:31.562346    15 layer_factory.hpp:77] Creating layer relu5
I0715 02:33:31.562367    15 net.cpp:84] Creating Layer relu5
I0715 02:33:31.562381    15 net.cpp:406] relu5 <- conv5
I0715 02:33:31.562396    15 net.cpp:367] relu5 -> conv5 (in-place)
I0715 02:33:31.562415    15 net.cpp:122] Setting up relu5
I0715 02:33:31.562433    15 net.cpp:129] Top shape: 32 256 13 13 (1384448)
I0715 02:33:31.562472    15 net.cpp:137] Memory required for data: 215199488
I0715 02:33:31.562484    15 layer_factory.hpp:77] Creating layer pool5
I0715 02:33:31.562505    15 net.cpp:84] Creating Layer pool5
I0715 02:33:31.562517    15 net.cpp:406] pool5 <- conv5
I0715 02:33:31.562536    15 net.cpp:380] pool5 -> pool5
I0715 02:33:31.562675    15 net.cpp:122] Setting up pool5
I0715 02:33:31.562690    15 net.cpp:129] Top shape: 32 256 6 6 (294912)
I0715 02:33:31.562702    15 net.cpp:137] Memory required for data: 216379136
I0715 02:33:31.562716    15 layer_factory.hpp:77] Creating layer fc6
I0715 02:33:31.562732    15 net.cpp:84] Creating Layer fc6
I0715 02:33:31.562748    15 net.cpp:406] fc6 <- pool5
I0715 02:33:31.562772    15 net.cpp:380] fc6 -> fc6
I0715 02:33:31.570613    19 data_layer.cpp:73] Restarting data prefetching from start.
I0715 02:33:31.600919    19 data_layer.cpp:73] Restarting data prefetching from start.
I0715 02:33:31.939101    15 net.cpp:122] Setting up fc6
I0715 02:33:31.939149    15 net.cpp:129] Top shape: 32 4096 (131072)
I0715 02:33:31.939159    15 net.cpp:137] Memory required for data: 216903424
I0715 02:33:31.939174    15 layer_factory.hpp:77] Creating layer relu6
I0715 02:33:31.939191    15 net.cpp:84] Creating Layer relu6
I0715 02:33:31.939201    15 net.cpp:406] relu6 <- fc6
I0715 02:33:31.939213    15 net.cpp:367] relu6 -> fc6 (in-place)
I0715 02:33:31.939225    15 net.cpp:122] Setting up relu6
I0715 02:33:31.939234    15 net.cpp:129] Top shape: 32 4096 (131072)
I0715 02:33:31.939241    15 net.cpp:137] Memory required for data: 217427712
I0715 02:33:31.939249    15 layer_factory.hpp:77] Creating layer drop6
I0715 02:33:31.939260    15 net.cpp:84] Creating Layer drop6
I0715 02:33:31.939326    15 net.cpp:406] drop6 <- fc6
I0715 02:33:31.939335    15 net.cpp:367] drop6 -> fc6 (in-place)
I0715 02:33:31.939345    15 net.cpp:122] Setting up drop6
I0715 02:33:31.939353    15 net.cpp:129] Top shape: 32 4096 (131072)
I0715 02:33:31.939362    15 net.cpp:137] Memory required for data: 217952000
I0715 02:33:31.939368    15 layer_factory.hpp:77] Creating layer fc7
I0715 02:33:31.939379    15 net.cpp:84] Creating Layer fc7
I0715 02:33:31.939388    15 net.cpp:406] fc7 <- fc6
I0715 02:33:31.939399    15 net.cpp:380] fc7 -> fc7
I0715 02:33:32.107094    15 net.cpp:122] Setting up fc7
I0715 02:33:32.107137    15 net.cpp:129] Top shape: 32 4096 (131072)
I0715 02:33:32.107146    15 net.cpp:137] Memory required for data: 218476288
I0715 02:33:32.107162    15 layer_factory.hpp:77] Creating layer relu7
I0715 02:33:32.107177    15 net.cpp:84] Creating Layer relu7
I0715 02:33:32.107187    15 net.cpp:406] relu7 <- fc7
I0715 02:33:32.107197    15 net.cpp:367] relu7 -> fc7 (in-place)
I0715 02:33:32.107211    15 net.cpp:122] Setting up relu7
I0715 02:33:32.107221    15 net.cpp:129] Top shape: 32 4096 (131072)
I0715 02:33:32.107228    15 net.cpp:137] Memory required for data: 219000576
I0715 02:33:32.107236    15 layer_factory.hpp:77] Creating layer drop7
I0715 02:33:32.107246    15 net.cpp:84] Creating Layer drop7
I0715 02:33:32.107254    15 net.cpp:406] drop7 <- fc7
I0715 02:33:32.107273    15 net.cpp:367] drop7 -> fc7 (in-place)
I0715 02:33:32.107285    15 net.cpp:122] Setting up drop7
I0715 02:33:32.107334    15 net.cpp:129] Top shape: 32 4096 (131072)
I0715 02:33:32.107353    15 net.cpp:137] Memory required for data: 219524864
I0715 02:33:32.107362    15 layer_factory.hpp:77] Creating layer fc8-ones-tens
I0715 02:33:32.107374    15 net.cpp:84] Creating Layer fc8-ones-tens
I0715 02:33:32.107383    15 net.cpp:406] fc8-ones-tens <- fc7
I0715 02:33:32.107391    15 net.cpp:380] fc8-ones-tens -> fc8-ones-tens
I0715 02:33:32.107535    15 net.cpp:122] Setting up fc8-ones-tens
I0715 02:33:32.107599    15 net.cpp:129] Top shape: 32 2 (64)
I0715 02:33:32.107606    15 net.cpp:137] Memory required for data: 219525120
I0715 02:33:32.107626    15 layer_factory.hpp:77] Creating layer fc8-ones-tens_fc8-ones-tens_0_split
I0715 02:33:32.107637    15 net.cpp:84] Creating Layer fc8-ones-tens_fc8-ones-tens_0_split
I0715 02:33:32.107800    15 net.cpp:406] fc8-ones-tens_fc8-ones-tens_0_split <- fc8-ones-tens
I0715 02:33:32.107817    15 net.cpp:380] fc8-ones-tens_fc8-ones-tens_0_split -> fc8-ones-tens_fc8-ones-tens_0_split_0
I0715 02:33:32.107919    15 net.cpp:380] fc8-ones-tens_fc8-ones-tens_0_split -> fc8-ones-tens_fc8-ones-tens_0_split_1
I0715 02:33:32.107945    15 net.cpp:122] Setting up fc8-ones-tens_fc8-ones-tens_0_split
I0715 02:33:32.107957    15 net.cpp:129] Top shape: 32 2 (64)
I0715 02:33:32.107965    15 net.cpp:129] Top shape: 32 2 (64)
I0715 02:33:32.107973    15 net.cpp:137] Memory required for data: 219525632
I0715 02:33:32.108227    15 layer_factory.hpp:77] Creating layer accuracy
I0715 02:33:32.108314    15 net.cpp:84] Creating Layer accuracy
I0715 02:33:32.108350    15 net.cpp:406] accuracy <- fc8-ones-tens_fc8-ones-tens_0_split_0
I0715 02:33:32.108413    15 net.cpp:406] accuracy <- label_data_1_split_0
I0715 02:33:32.108428    15 net.cpp:380] accuracy -> accuracy
…
